{"class_name": "Model", "keras_version": "2.0.6", "config": {"layers": [{"class_name": "InputLayer", "config": {"dtype": "float32", "batch_input_shape": [null, 50, 120, 3], "name": "input_1", "sparse": false}, "inbound_nodes": [], "name": "input_1"}, {"class_name": "Conv2D", "config": {"kernel_constraint": null, "kernel_initializer": {"class_name": "VarianceScaling", "config": {"distribution": "uniform", "scale": 1.0, "seed": null, "mode": "fan_avg"}}, "name": "block1_conv1", "bias_regularizer": null, "bias_constraint": null, "activation": "linear", "trainable": true, "data_format": "channels_last", "padding": "valid", "strides": [2, 2], "dilation_rate": [1, 1], "kernel_regularizer": null, "filters": 32, "bias_initializer": {"class_name": "Zeros", "config": {}}, "use_bias": false, "activity_regularizer": null, "kernel_size": [3, 3]}, "inbound_nodes": [[["input_1", 0, 0, {}]]], "name": "block1_conv1"}, {"class_name": "BatchNormalization", "config": {"beta_constraint": null, "gamma_initializer": {"class_name": "Ones", "config": {}}, "moving_mean_initializer": {"class_name": "Zeros", "config": {}}, "name": "block1_conv1_bn", "epsilon": 0.001, "trainable": true, "moving_variance_initializer": {"class_name": "Ones", "config": {}}, "beta_initializer": {"class_name": "Zeros", "config": {}}, "scale": true, "axis": -1, "gamma_constraint": null, "gamma_regularizer": null, "beta_regularizer": null, "momentum": 0.99, "center": true}, "inbound_nodes": [[["block1_conv1", 0, 0, {}]]], "name": "block1_conv1_bn"}, {"class_name": "Activation", "config": {"activation": "relu", "trainable": true, "name": "block1_conv1_act"}, "inbound_nodes": [[["block1_conv1_bn", 0, 0, {}]]], "name": "block1_conv1_act"}, {"class_name": "Conv2D", "config": {"kernel_constraint": null, "kernel_initializer": {"class_name": "VarianceScaling", "config": {"distribution": "uniform", "scale": 1.0, "seed": null, "mode": "fan_avg"}}, "name": "block1_conv2", "bias_regularizer": null, "bias_constraint": null, "activation": "linear", "trainable": true, "data_format": "channels_last", "padding": "valid", "strides": [1, 1], "dilation_rate": [1, 1], "kernel_regularizer": null, "filters": 64, "bias_initializer": {"class_name": "Zeros", "config": {}}, "use_bias": false, "activity_regularizer": null, "kernel_size": [3, 3]}, "inbound_nodes": [[["block1_conv1_act", 0, 0, {}]]], "name": "block1_conv2"}, {"class_name": "BatchNormalization", "config": {"beta_constraint": null, "gamma_initializer": {"class_name": "Ones", "config": {}}, "moving_mean_initializer": {"class_name": "Zeros", "config": {}}, "name": "block1_conv2_bn", "epsilon": 0.001, "trainable": true, "moving_variance_initializer": {"class_name": "Ones", "config": {}}, "beta_initializer": {"class_name": "Zeros", "config": {}}, "scale": true, "axis": -1, "gamma_constraint": null, "gamma_regularizer": null, "beta_regularizer": null, "momentum": 0.99, "center": true}, "inbound_nodes": [[["block1_conv2", 0, 0, {}]]], "name": "block1_conv2_bn"}, {"class_name": "Activation", "config": {"activation": "relu", "trainable": true, "name": "block1_conv2_act"}, "inbound_nodes": [[["block1_conv2_bn", 0, 0, {}]]], "name": "block1_conv2_act"}, {"class_name": "SeparableConv2D", "config": {"padding": "same", "use_bias": false, "bias_regularizer": null, "pointwise_initializer": {"class_name": "VarianceScaling", "config": {"distribution": "uniform", "scale": 1.0, "seed": null, "mode": "fan_avg"}}, "bias_constraint": null, "activity_regularizer": null, "trainable": true, "pointwise_constraint": null, "data_format": "channels_last", "depthwise_initializer": {"class_name": "VarianceScaling", "config": {"distribution": "uniform", "scale": 1.0, "seed": null, "mode": "fan_avg"}}, "depthwise_constraint": null, "strides": [1, 1], "pointwise_regularizer": null, "filters": 128, "bias_initializer": {"class_name": "Zeros", "config": {}}, "depth_multiplier": 1, "dilation_rate": [1, 1], "depthwise_regularizer": null, "activation": "linear", "kernel_size": [3, 3], "name": "block2_sepconv1"}, "inbound_nodes": [[["block1_conv2_act", 0, 0, {}]]], "name": "block2_sepconv1"}, {"class_name": "BatchNormalization", "config": {"beta_constraint": null, "gamma_initializer": {"class_name": "Ones", "config": {}}, "moving_mean_initializer": {"class_name": "Zeros", "config": {}}, "name": "block2_sepconv1_bn", "epsilon": 0.001, "trainable": true, "moving_variance_initializer": {"class_name": "Ones", "config": {}}, "beta_initializer": {"class_name": "Zeros", "config": {}}, "scale": true, "axis": -1, "gamma_constraint": null, "gamma_regularizer": null, "beta_regularizer": null, "momentum": 0.99, "center": true}, "inbound_nodes": [[["block2_sepconv1", 0, 0, {}]]], "name": "block2_sepconv1_bn"}, {"class_name": "Activation", "config": {"activation": "relu", "trainable": true, "name": "block2_sepconv2_act"}, "inbound_nodes": [[["block2_sepconv1_bn", 0, 0, {}]]], "name": "block2_sepconv2_act"}, {"class_name": "SeparableConv2D", "config": {"padding": "same", "use_bias": false, "bias_regularizer": null, "pointwise_initializer": {"class_name": "VarianceScaling", "config": {"distribution": "uniform", "scale": 1.0, "seed": null, "mode": "fan_avg"}}, "bias_constraint": null, "activity_regularizer": null, "trainable": true, "pointwise_constraint": null, "data_format": "channels_last", "depthwise_initializer": {"class_name": "VarianceScaling", "config": {"distribution": "uniform", "scale": 1.0, "seed": null, "mode": "fan_avg"}}, "depthwise_constraint": null, "strides": [1, 1], "pointwise_regularizer": null, "filters": 128, "bias_initializer": {"class_name": "Zeros", "config": {}}, "depth_multiplier": 1, "dilation_rate": [1, 1], "depthwise_regularizer": null, "activation": "linear", "kernel_size": [3, 3], "name": "block2_sepconv2"}, "inbound_nodes": [[["block2_sepconv2_act", 0, 0, {}]]], "name": "block2_sepconv2"}, {"class_name": "BatchNormalization", "config": {"beta_constraint": null, "gamma_initializer": {"class_name": "Ones", "config": {}}, "moving_mean_initializer": {"class_name": "Zeros", "config": {}}, "name": "block2_sepconv2_bn", "epsilon": 0.001, "trainable": true, "moving_variance_initializer": {"class_name": "Ones", "config": {}}, "beta_initializer": {"class_name": "Zeros", "config": {}}, "scale": true, "axis": -1, "gamma_constraint": null, "gamma_regularizer": null, "beta_regularizer": null, "momentum": 0.99, "center": true}, "inbound_nodes": [[["block2_sepconv2", 0, 0, {}]]], "name": "block2_sepconv2_bn"}, {"class_name": "Conv2D", "config": {"kernel_constraint": null, "kernel_initializer": {"class_name": "VarianceScaling", "config": {"distribution": "uniform", "scale": 1.0, "seed": null, "mode": "fan_avg"}}, "name": "conv2d_1", "bias_regularizer": null, "bias_constraint": null, "activation": "linear", "trainable": true, "data_format": "channels_last", "padding": "same", "strides": [2, 2], "dilation_rate": [1, 1], "kernel_regularizer": null, "filters": 128, "bias_initializer": {"class_name": "Zeros", "config": {}}, "use_bias": false, "activity_regularizer": null, "kernel_size": [1, 1]}, "inbound_nodes": [[["block1_conv2_act", 0, 0, {}]]], "name": "conv2d_1"}, {"class_name": "MaxPooling2D", "config": {"name": "block2_pool", "trainable": true, "data_format": "channels_last", "pool_size": [3, 3], "padding": "same", "strides": [2, 2]}, "inbound_nodes": [[["block2_sepconv2_bn", 0, 0, {}]]], "name": "block2_pool"}, {"class_name": "BatchNormalization", "config": {"beta_constraint": null, "gamma_initializer": {"class_name": "Ones", "config": {}}, "moving_mean_initializer": {"class_name": "Zeros", "config": {}}, "name": "batch_normalization_1", "epsilon": 0.001, "trainable": true, "moving_variance_initializer": {"class_name": "Ones", "config": {}}, "beta_initializer": {"class_name": "Zeros", "config": {}}, "scale": true, "axis": -1, "gamma_constraint": null, "gamma_regularizer": null, "beta_regularizer": null, "momentum": 0.99, "center": true}, "inbound_nodes": [[["conv2d_1", 0, 0, {}]]], "name": "batch_normalization_1"}, {"class_name": "Add", "config": {"trainable": true, "name": "add_1"}, "inbound_nodes": [[["block2_pool", 0, 0, {}], ["batch_normalization_1", 0, 0, {}]]], "name": "add_1"}, {"class_name": "Activation", "config": {"activation": "relu", "trainable": true, "name": "block3_sepconv1_act"}, "inbound_nodes": [[["add_1", 0, 0, {}]]], "name": "block3_sepconv1_act"}, {"class_name": "SeparableConv2D", "config": {"padding": "same", "use_bias": false, "bias_regularizer": null, "pointwise_initializer": {"class_name": "VarianceScaling", "config": {"distribution": "uniform", "scale": 1.0, "seed": null, "mode": "fan_avg"}}, "bias_constraint": null, "activity_regularizer": null, "trainable": true, "pointwise_constraint": null, "data_format": "channels_last", "depthwise_initializer": {"class_name": "VarianceScaling", "config": {"distribution": "uniform", "scale": 1.0, "seed": null, "mode": "fan_avg"}}, "depthwise_constraint": null, "strides": [1, 1], "pointwise_regularizer": null, "filters": 256, "bias_initializer": {"class_name": "Zeros", "config": {}}, "depth_multiplier": 1, "dilation_rate": [1, 1], "depthwise_regularizer": null, "activation": "linear", "kernel_size": [3, 3], "name": "block3_sepconv1"}, "inbound_nodes": [[["block3_sepconv1_act", 0, 0, {}]]], "name": "block3_sepconv1"}, {"class_name": "BatchNormalization", "config": {"beta_constraint": null, "gamma_initializer": {"class_name": "Ones", "config": {}}, "moving_mean_initializer": {"class_name": "Zeros", "config": {}}, "name": "block3_sepconv1_bn", "epsilon": 0.001, "trainable": true, "moving_variance_initializer": {"class_name": "Ones", "config": {}}, "beta_initializer": {"class_name": "Zeros", "config": {}}, "scale": true, "axis": -1, "gamma_constraint": null, "gamma_regularizer": null, "beta_regularizer": null, "momentum": 0.99, "center": true}, "inbound_nodes": [[["block3_sepconv1", 0, 0, {}]]], "name": "block3_sepconv1_bn"}, {"class_name": "Activation", "config": {"activation": "relu", "trainable": true, "name": "block3_sepconv2_act"}, "inbound_nodes": [[["block3_sepconv1_bn", 0, 0, {}]]], "name": "block3_sepconv2_act"}, {"class_name": "SeparableConv2D", "config": {"padding": "same", "use_bias": false, "bias_regularizer": null, "pointwise_initializer": {"class_name": "VarianceScaling", "config": {"distribution": "uniform", "scale": 1.0, "seed": null, "mode": "fan_avg"}}, "bias_constraint": null, "activity_regularizer": null, "trainable": true, "pointwise_constraint": null, "data_format": "channels_last", "depthwise_initializer": {"class_name": "VarianceScaling", "config": {"distribution": "uniform", "scale": 1.0, "seed": null, "mode": "fan_avg"}}, "depthwise_constraint": null, "strides": [1, 1], "pointwise_regularizer": null, "filters": 256, "bias_initializer": {"class_name": "Zeros", "config": {}}, "depth_multiplier": 1, "dilation_rate": [1, 1], "depthwise_regularizer": null, "activation": "linear", "kernel_size": [3, 3], "name": "block3_sepconv2"}, "inbound_nodes": [[["block3_sepconv2_act", 0, 0, {}]]], "name": "block3_sepconv2"}, {"class_name": "BatchNormalization", "config": {"beta_constraint": null, "gamma_initializer": {"class_name": "Ones", "config": {}}, "moving_mean_initializer": {"class_name": "Zeros", "config": {}}, "name": "block3_sepconv2_bn", "epsilon": 0.001, "trainable": true, "moving_variance_initializer": {"class_name": "Ones", "config": {}}, "beta_initializer": {"class_name": "Zeros", "config": {}}, "scale": true, "axis": -1, "gamma_constraint": null, "gamma_regularizer": null, "beta_regularizer": null, "momentum": 0.99, "center": true}, "inbound_nodes": [[["block3_sepconv2", 0, 0, {}]]], "name": "block3_sepconv2_bn"}, {"class_name": "Conv2D", "config": {"kernel_constraint": null, "kernel_initializer": {"class_name": "VarianceScaling", "config": {"distribution": "uniform", "scale": 1.0, "seed": null, "mode": "fan_avg"}}, "name": "conv2d_2", "bias_regularizer": null, "bias_constraint": null, "activation": "linear", "trainable": true, "data_format": "channels_last", "padding": "same", "strides": [2, 2], "dilation_rate": [1, 1], "kernel_regularizer": null, "filters": 256, "bias_initializer": {"class_name": "Zeros", "config": {}}, "use_bias": false, "activity_regularizer": null, "kernel_size": [1, 1]}, "inbound_nodes": [[["add_1", 0, 0, {}]]], "name": "conv2d_2"}, {"class_name": "MaxPooling2D", "config": {"name": "block3_pool", "trainable": true, "data_format": "channels_last", "pool_size": [3, 3], "padding": "same", "strides": [2, 2]}, "inbound_nodes": [[["block3_sepconv2_bn", 0, 0, {}]]], "name": "block3_pool"}, {"class_name": "BatchNormalization", "config": {"beta_constraint": null, "gamma_initializer": {"class_name": "Ones", "config": {}}, "moving_mean_initializer": {"class_name": "Zeros", "config": {}}, "name": "batch_normalization_2", "epsilon": 0.001, "trainable": true, "moving_variance_initializer": {"class_name": "Ones", "config": {}}, "beta_initializer": {"class_name": "Zeros", "config": {}}, "scale": true, "axis": -1, "gamma_constraint": null, "gamma_regularizer": null, "beta_regularizer": null, "momentum": 0.99, "center": true}, "inbound_nodes": [[["conv2d_2", 0, 0, {}]]], "name": "batch_normalization_2"}, {"class_name": "Add", "config": {"trainable": true, "name": "add_2"}, "inbound_nodes": [[["block3_pool", 0, 0, {}], ["batch_normalization_2", 0, 0, {}]]], "name": "add_2"}, {"class_name": "Activation", "config": {"activation": "relu", "trainable": true, "name": "block4_sepconv1_act"}, "inbound_nodes": [[["add_2", 0, 0, {}]]], "name": "block4_sepconv1_act"}, {"class_name": "SeparableConv2D", "config": {"padding": "same", "use_bias": false, "bias_regularizer": null, "pointwise_initializer": {"class_name": "VarianceScaling", "config": {"distribution": "uniform", "scale": 1.0, "seed": null, "mode": "fan_avg"}}, "bias_constraint": null, "activity_regularizer": null, "trainable": true, "pointwise_constraint": null, "data_format": "channels_last", "depthwise_initializer": {"class_name": "VarianceScaling", "config": {"distribution": "uniform", "scale": 1.0, "seed": null, "mode": "fan_avg"}}, "depthwise_constraint": null, "strides": [1, 1], "pointwise_regularizer": null, "filters": 728, "bias_initializer": {"class_name": "Zeros", "config": {}}, "depth_multiplier": 1, "dilation_rate": [1, 1], "depthwise_regularizer": null, "activation": "linear", "kernel_size": [3, 3], "name": "block4_sepconv1"}, "inbound_nodes": [[["block4_sepconv1_act", 0, 0, {}]]], "name": "block4_sepconv1"}, {"class_name": "BatchNormalization", "config": {"beta_constraint": null, "gamma_initializer": {"class_name": "Ones", "config": {}}, "moving_mean_initializer": {"class_name": "Zeros", "config": {}}, "name": "block4_sepconv1_bn", "epsilon": 0.001, "trainable": true, "moving_variance_initializer": {"class_name": "Ones", "config": {}}, "beta_initializer": {"class_name": "Zeros", "config": {}}, "scale": true, "axis": -1, "gamma_constraint": null, "gamma_regularizer": null, "beta_regularizer": null, "momentum": 0.99, "center": true}, "inbound_nodes": [[["block4_sepconv1", 0, 0, {}]]], "name": "block4_sepconv1_bn"}, {"class_name": "Activation", "config": {"activation": "relu", "trainable": true, "name": "block4_sepconv2_act"}, "inbound_nodes": [[["block4_sepconv1_bn", 0, 0, {}]]], "name": "block4_sepconv2_act"}, {"class_name": "SeparableConv2D", "config": {"padding": "same", "use_bias": false, "bias_regularizer": null, "pointwise_initializer": {"class_name": "VarianceScaling", "config": {"distribution": "uniform", "scale": 1.0, "seed": null, "mode": "fan_avg"}}, "bias_constraint": null, "activity_regularizer": null, "trainable": true, "pointwise_constraint": null, "data_format": "channels_last", "depthwise_initializer": {"class_name": "VarianceScaling", "config": {"distribution": "uniform", "scale": 1.0, "seed": null, "mode": "fan_avg"}}, "depthwise_constraint": null, "strides": [1, 1], "pointwise_regularizer": null, "filters": 728, "bias_initializer": {"class_name": "Zeros", "config": {}}, "depth_multiplier": 1, "dilation_rate": [1, 1], "depthwise_regularizer": null, "activation": "linear", "kernel_size": [3, 3], "name": "block4_sepconv2"}, "inbound_nodes": [[["block4_sepconv2_act", 0, 0, {}]]], "name": "block4_sepconv2"}, {"class_name": "BatchNormalization", "config": {"beta_constraint": null, "gamma_initializer": {"class_name": "Ones", "config": {}}, "moving_mean_initializer": {"class_name": "Zeros", "config": {}}, "name": "block4_sepconv2_bn", "epsilon": 0.001, "trainable": true, "moving_variance_initializer": {"class_name": "Ones", "config": {}}, "beta_initializer": {"class_name": "Zeros", "config": {}}, "scale": true, "axis": -1, "gamma_constraint": null, "gamma_regularizer": null, "beta_regularizer": null, "momentum": 0.99, "center": true}, "inbound_nodes": [[["block4_sepconv2", 0, 0, {}]]], "name": "block4_sepconv2_bn"}, {"class_name": "Conv2D", "config": {"kernel_constraint": null, "kernel_initializer": {"class_name": "VarianceScaling", "config": {"distribution": "uniform", "scale": 1.0, "seed": null, "mode": "fan_avg"}}, "name": "conv2d_3", "bias_regularizer": null, "bias_constraint": null, "activation": "linear", "trainable": true, "data_format": "channels_last", "padding": "same", "strides": [2, 2], "dilation_rate": [1, 1], "kernel_regularizer": null, "filters": 728, "bias_initializer": {"class_name": "Zeros", "config": {}}, "use_bias": false, "activity_regularizer": null, "kernel_size": [1, 1]}, "inbound_nodes": [[["add_2", 0, 0, {}]]], "name": "conv2d_3"}, {"class_name": "MaxPooling2D", "config": {"name": "block4_pool", "trainable": true, "data_format": "channels_last", "pool_size": [3, 3], "padding": "same", "strides": [2, 2]}, "inbound_nodes": [[["block4_sepconv2_bn", 0, 0, {}]]], "name": "block4_pool"}, {"class_name": "BatchNormalization", "config": {"beta_constraint": null, "gamma_initializer": {"class_name": "Ones", "config": {}}, "moving_mean_initializer": {"class_name": "Zeros", "config": {}}, "name": "batch_normalization_3", "epsilon": 0.001, "trainable": true, "moving_variance_initializer": {"class_name": "Ones", "config": {}}, "beta_initializer": {"class_name": "Zeros", "config": {}}, "scale": true, "axis": -1, "gamma_constraint": null, "gamma_regularizer": null, "beta_regularizer": null, "momentum": 0.99, "center": true}, "inbound_nodes": [[["conv2d_3", 0, 0, {}]]], "name": "batch_normalization_3"}, {"class_name": "Add", "config": {"trainable": true, "name": "add_3"}, "inbound_nodes": [[["block4_pool", 0, 0, {}], ["batch_normalization_3", 0, 0, {}]]], "name": "add_3"}, {"class_name": "Activation", "config": {"activation": "relu", "trainable": true, "name": "block5_sepconv1_act"}, "inbound_nodes": [[["add_3", 0, 0, {}]]], "name": "block5_sepconv1_act"}, {"class_name": "SeparableConv2D", "config": {"padding": "same", "use_bias": false, "bias_regularizer": null, "pointwise_initializer": {"class_name": "VarianceScaling", "config": {"distribution": "uniform", "scale": 1.0, "seed": null, "mode": "fan_avg"}}, "bias_constraint": null, "activity_regularizer": null, "trainable": true, "pointwise_constraint": null, "data_format": "channels_last", "depthwise_initializer": {"class_name": "VarianceScaling", "config": {"distribution": "uniform", "scale": 1.0, "seed": null, "mode": "fan_avg"}}, "depthwise_constraint": null, "strides": [1, 1], "pointwise_regularizer": null, "filters": 728, "bias_initializer": {"class_name": "Zeros", "config": {}}, "depth_multiplier": 1, "dilation_rate": [1, 1], "depthwise_regularizer": null, "activation": "linear", "kernel_size": [3, 3], "name": "block5_sepconv1"}, "inbound_nodes": [[["block5_sepconv1_act", 0, 0, {}]]], "name": "block5_sepconv1"}, {"class_name": "BatchNormalization", "config": {"beta_constraint": null, "gamma_initializer": {"class_name": "Ones", "config": {}}, "moving_mean_initializer": {"class_name": "Zeros", "config": {}}, "name": "block5_sepconv1_bn", "epsilon": 0.001, "trainable": true, "moving_variance_initializer": {"class_name": "Ones", "config": {}}, "beta_initializer": {"class_name": "Zeros", "config": {}}, "scale": true, "axis": -1, "gamma_constraint": null, "gamma_regularizer": null, "beta_regularizer": null, "momentum": 0.99, "center": true}, "inbound_nodes": [[["block5_sepconv1", 0, 0, {}]]], "name": "block5_sepconv1_bn"}, {"class_name": "Activation", "config": {"activation": "relu", "trainable": true, "name": "block5_sepconv2_act"}, "inbound_nodes": [[["block5_sepconv1_bn", 0, 0, {}]]], "name": "block5_sepconv2_act"}, {"class_name": "SeparableConv2D", "config": {"padding": "same", "use_bias": false, "bias_regularizer": null, "pointwise_initializer": {"class_name": "VarianceScaling", "config": {"distribution": "uniform", "scale": 1.0, "seed": null, "mode": "fan_avg"}}, "bias_constraint": null, "activity_regularizer": null, "trainable": true, "pointwise_constraint": null, "data_format": "channels_last", "depthwise_initializer": {"class_name": "VarianceScaling", "config": {"distribution": "uniform", "scale": 1.0, "seed": null, "mode": "fan_avg"}}, "depthwise_constraint": null, "strides": [1, 1], "pointwise_regularizer": null, "filters": 728, "bias_initializer": {"class_name": "Zeros", "config": {}}, "depth_multiplier": 1, "dilation_rate": [1, 1], "depthwise_regularizer": null, "activation": "linear", "kernel_size": [3, 3], "name": "block5_sepconv2"}, "inbound_nodes": [[["block5_sepconv2_act", 0, 0, {}]]], "name": "block5_sepconv2"}, {"class_name": "BatchNormalization", "config": {"beta_constraint": null, "gamma_initializer": {"class_name": "Ones", "config": {}}, "moving_mean_initializer": {"class_name": "Zeros", "config": {}}, "name": "block5_sepconv2_bn", "epsilon": 0.001, "trainable": true, "moving_variance_initializer": {"class_name": "Ones", "config": {}}, "beta_initializer": {"class_name": "Zeros", "config": {}}, "scale": true, "axis": -1, "gamma_constraint": null, "gamma_regularizer": null, "beta_regularizer": null, "momentum": 0.99, "center": true}, "inbound_nodes": [[["block5_sepconv2", 0, 0, {}]]], "name": "block5_sepconv2_bn"}, {"class_name": "Activation", "config": {"activation": "relu", "trainable": true, "name": "block5_sepconv3_act"}, "inbound_nodes": [[["block5_sepconv2_bn", 0, 0, {}]]], "name": "block5_sepconv3_act"}, {"class_name": "SeparableConv2D", "config": {"padding": "same", "use_bias": false, "bias_regularizer": null, "pointwise_initializer": {"class_name": "VarianceScaling", "config": {"distribution": "uniform", "scale": 1.0, "seed": null, "mode": "fan_avg"}}, "bias_constraint": null, "activity_regularizer": null, "trainable": true, "pointwise_constraint": null, "data_format": "channels_last", "depthwise_initializer": {"class_name": "VarianceScaling", "config": {"distribution": "uniform", "scale": 1.0, "seed": null, "mode": "fan_avg"}}, "depthwise_constraint": null, "strides": [1, 1], "pointwise_regularizer": null, "filters": 728, "bias_initializer": {"class_name": "Zeros", "config": {}}, "depth_multiplier": 1, "dilation_rate": [1, 1], "depthwise_regularizer": null, "activation": "linear", "kernel_size": [3, 3], "name": "block5_sepconv3"}, "inbound_nodes": [[["block5_sepconv3_act", 0, 0, {}]]], "name": "block5_sepconv3"}, {"class_name": "BatchNormalization", "config": {"beta_constraint": null, "gamma_initializer": {"class_name": "Ones", "config": {}}, "moving_mean_initializer": {"class_name": "Zeros", "config": {}}, "name": "block5_sepconv3_bn", "epsilon": 0.001, "trainable": true, "moving_variance_initializer": {"class_name": "Ones", "config": {}}, "beta_initializer": {"class_name": "Zeros", "config": {}}, "scale": true, "axis": -1, "gamma_constraint": null, "gamma_regularizer": null, "beta_regularizer": null, "momentum": 0.99, "center": true}, "inbound_nodes": [[["block5_sepconv3", 0, 0, {}]]], "name": "block5_sepconv3_bn"}, {"class_name": "Add", "config": {"trainable": true, "name": "add_4"}, "inbound_nodes": [[["block5_sepconv3_bn", 0, 0, {}], ["add_3", 0, 0, {}]]], "name": "add_4"}, {"class_name": "Activation", "config": {"activation": "relu", "trainable": true, "name": "block6_sepconv1_act"}, "inbound_nodes": [[["add_4", 0, 0, {}]]], "name": "block6_sepconv1_act"}, {"class_name": "SeparableConv2D", "config": {"padding": "same", "use_bias": false, "bias_regularizer": null, "pointwise_initializer": {"class_name": "VarianceScaling", "config": {"distribution": "uniform", "scale": 1.0, "seed": null, "mode": "fan_avg"}}, "bias_constraint": null, "activity_regularizer": null, "trainable": true, "pointwise_constraint": null, "data_format": "channels_last", "depthwise_initializer": {"class_name": "VarianceScaling", "config": {"distribution": "uniform", "scale": 1.0, "seed": null, "mode": "fan_avg"}}, "depthwise_constraint": null, "strides": [1, 1], "pointwise_regularizer": null, "filters": 728, "bias_initializer": {"class_name": "Zeros", "config": {}}, "depth_multiplier": 1, "dilation_rate": [1, 1], "depthwise_regularizer": null, "activation": "linear", "kernel_size": [3, 3], "name": "block6_sepconv1"}, "inbound_nodes": [[["block6_sepconv1_act", 0, 0, {}]]], "name": "block6_sepconv1"}, {"class_name": "BatchNormalization", "config": {"beta_constraint": null, "gamma_initializer": {"class_name": "Ones", "config": {}}, "moving_mean_initializer": {"class_name": "Zeros", "config": {}}, "name": "block6_sepconv1_bn", "epsilon": 0.001, "trainable": true, "moving_variance_initializer": {"class_name": "Ones", "config": {}}, "beta_initializer": {"class_name": "Zeros", "config": {}}, "scale": true, "axis": -1, "gamma_constraint": null, "gamma_regularizer": null, "beta_regularizer": null, "momentum": 0.99, "center": true}, "inbound_nodes": [[["block6_sepconv1", 0, 0, {}]]], "name": "block6_sepconv1_bn"}, {"class_name": "Activation", "config": {"activation": "relu", "trainable": true, "name": "block6_sepconv2_act"}, "inbound_nodes": [[["block6_sepconv1_bn", 0, 0, {}]]], "name": "block6_sepconv2_act"}, {"class_name": "SeparableConv2D", "config": {"padding": "same", "use_bias": false, "bias_regularizer": null, "pointwise_initializer": {"class_name": "VarianceScaling", "config": {"distribution": "uniform", "scale": 1.0, "seed": null, "mode": "fan_avg"}}, "bias_constraint": null, "activity_regularizer": null, "trainable": true, "pointwise_constraint": null, "data_format": "channels_last", "depthwise_initializer": {"class_name": "VarianceScaling", "config": {"distribution": "uniform", "scale": 1.0, "seed": null, "mode": "fan_avg"}}, "depthwise_constraint": null, "strides": [1, 1], "pointwise_regularizer": null, "filters": 728, "bias_initializer": {"class_name": "Zeros", "config": {}}, "depth_multiplier": 1, "dilation_rate": [1, 1], "depthwise_regularizer": null, "activation": "linear", "kernel_size": [3, 3], "name": "block6_sepconv2"}, "inbound_nodes": [[["block6_sepconv2_act", 0, 0, {}]]], "name": "block6_sepconv2"}, {"class_name": "BatchNormalization", "config": {"beta_constraint": null, "gamma_initializer": {"class_name": "Ones", "config": {}}, "moving_mean_initializer": {"class_name": "Zeros", "config": {}}, "name": "block6_sepconv2_bn", "epsilon": 0.001, "trainable": true, "moving_variance_initializer": {"class_name": "Ones", "config": {}}, "beta_initializer": {"class_name": "Zeros", "config": {}}, "scale": true, "axis": -1, "gamma_constraint": null, "gamma_regularizer": null, "beta_regularizer": null, "momentum": 0.99, "center": true}, "inbound_nodes": [[["block6_sepconv2", 0, 0, {}]]], "name": "block6_sepconv2_bn"}, {"class_name": "Activation", "config": {"activation": "relu", "trainable": true, "name": "block6_sepconv3_act"}, "inbound_nodes": [[["block6_sepconv2_bn", 0, 0, {}]]], "name": "block6_sepconv3_act"}, {"class_name": "SeparableConv2D", "config": {"padding": "same", "use_bias": false, "bias_regularizer": null, "pointwise_initializer": {"class_name": "VarianceScaling", "config": {"distribution": "uniform", "scale": 1.0, "seed": null, "mode": "fan_avg"}}, "bias_constraint": null, "activity_regularizer": null, "trainable": true, "pointwise_constraint": null, "data_format": "channels_last", "depthwise_initializer": {"class_name": "VarianceScaling", "config": {"distribution": "uniform", "scale": 1.0, "seed": null, "mode": "fan_avg"}}, "depthwise_constraint": null, "strides": [1, 1], "pointwise_regularizer": null, "filters": 728, "bias_initializer": {"class_name": "Zeros", "config": {}}, "depth_multiplier": 1, "dilation_rate": [1, 1], "depthwise_regularizer": null, "activation": "linear", "kernel_size": [3, 3], "name": "block6_sepconv3"}, "inbound_nodes": [[["block6_sepconv3_act", 0, 0, {}]]], "name": "block6_sepconv3"}, {"class_name": "BatchNormalization", "config": {"beta_constraint": null, "gamma_initializer": {"class_name": "Ones", "config": {}}, "moving_mean_initializer": {"class_name": "Zeros", "config": {}}, "name": "block6_sepconv3_bn", "epsilon": 0.001, "trainable": true, "moving_variance_initializer": {"class_name": "Ones", "config": {}}, "beta_initializer": {"class_name": "Zeros", "config": {}}, "scale": true, "axis": -1, "gamma_constraint": null, "gamma_regularizer": null, "beta_regularizer": null, "momentum": 0.99, "center": true}, "inbound_nodes": [[["block6_sepconv3", 0, 0, {}]]], "name": "block6_sepconv3_bn"}, {"class_name": "Add", "config": {"trainable": true, "name": "add_5"}, "inbound_nodes": [[["block6_sepconv3_bn", 0, 0, {}], ["add_4", 0, 0, {}]]], "name": "add_5"}, {"class_name": "Activation", "config": {"activation": "relu", "trainable": true, "name": "block7_sepconv1_act"}, "inbound_nodes": [[["add_5", 0, 0, {}]]], "name": "block7_sepconv1_act"}, {"class_name": "SeparableConv2D", "config": {"padding": "same", "use_bias": false, "bias_regularizer": null, "pointwise_initializer": {"class_name": "VarianceScaling", "config": {"distribution": "uniform", "scale": 1.0, "seed": null, "mode": "fan_avg"}}, "bias_constraint": null, "activity_regularizer": null, "trainable": true, "pointwise_constraint": null, "data_format": "channels_last", "depthwise_initializer": {"class_name": "VarianceScaling", "config": {"distribution": "uniform", "scale": 1.0, "seed": null, "mode": "fan_avg"}}, "depthwise_constraint": null, "strides": [1, 1], "pointwise_regularizer": null, "filters": 728, "bias_initializer": {"class_name": "Zeros", "config": {}}, "depth_multiplier": 1, "dilation_rate": [1, 1], "depthwise_regularizer": null, "activation": "linear", "kernel_size": [3, 3], "name": "block7_sepconv1"}, "inbound_nodes": [[["block7_sepconv1_act", 0, 0, {}]]], "name": "block7_sepconv1"}, {"class_name": "BatchNormalization", "config": {"beta_constraint": null, "gamma_initializer": {"class_name": "Ones", "config": {}}, "moving_mean_initializer": {"class_name": "Zeros", "config": {}}, "name": "block7_sepconv1_bn", "epsilon": 0.001, "trainable": true, "moving_variance_initializer": {"class_name": "Ones", "config": {}}, "beta_initializer": {"class_name": "Zeros", "config": {}}, "scale": true, "axis": -1, "gamma_constraint": null, "gamma_regularizer": null, "beta_regularizer": null, "momentum": 0.99, "center": true}, "inbound_nodes": [[["block7_sepconv1", 0, 0, {}]]], "name": "block7_sepconv1_bn"}, {"class_name": "Activation", "config": {"activation": "relu", "trainable": true, "name": "block7_sepconv2_act"}, "inbound_nodes": [[["block7_sepconv1_bn", 0, 0, {}]]], "name": "block7_sepconv2_act"}, {"class_name": "SeparableConv2D", "config": {"padding": "same", "use_bias": false, "bias_regularizer": null, "pointwise_initializer": {"class_name": "VarianceScaling", "config": {"distribution": "uniform", "scale": 1.0, "seed": null, "mode": "fan_avg"}}, "bias_constraint": null, "activity_regularizer": null, "trainable": true, "pointwise_constraint": null, "data_format": "channels_last", "depthwise_initializer": {"class_name": "VarianceScaling", "config": {"distribution": "uniform", "scale": 1.0, "seed": null, "mode": "fan_avg"}}, "depthwise_constraint": null, "strides": [1, 1], "pointwise_regularizer": null, "filters": 728, "bias_initializer": {"class_name": "Zeros", "config": {}}, "depth_multiplier": 1, "dilation_rate": [1, 1], "depthwise_regularizer": null, "activation": "linear", "kernel_size": [3, 3], "name": "block7_sepconv2"}, "inbound_nodes": [[["block7_sepconv2_act", 0, 0, {}]]], "name": "block7_sepconv2"}, {"class_name": "BatchNormalization", "config": {"beta_constraint": null, "gamma_initializer": {"class_name": "Ones", "config": {}}, "moving_mean_initializer": {"class_name": "Zeros", "config": {}}, "name": "block7_sepconv2_bn", "epsilon": 0.001, "trainable": true, "moving_variance_initializer": {"class_name": "Ones", "config": {}}, "beta_initializer": {"class_name": "Zeros", "config": {}}, "scale": true, "axis": -1, "gamma_constraint": null, "gamma_regularizer": null, "beta_regularizer": null, "momentum": 0.99, "center": true}, "inbound_nodes": [[["block7_sepconv2", 0, 0, {}]]], "name": "block7_sepconv2_bn"}, {"class_name": "Activation", "config": {"activation": "relu", "trainable": true, "name": "block7_sepconv3_act"}, "inbound_nodes": [[["block7_sepconv2_bn", 0, 0, {}]]], "name": "block7_sepconv3_act"}, {"class_name": "SeparableConv2D", "config": {"padding": "same", "use_bias": false, "bias_regularizer": null, "pointwise_initializer": {"class_name": "VarianceScaling", "config": {"distribution": "uniform", "scale": 1.0, "seed": null, "mode": "fan_avg"}}, "bias_constraint": null, "activity_regularizer": null, "trainable": true, "pointwise_constraint": null, "data_format": "channels_last", "depthwise_initializer": {"class_name": "VarianceScaling", "config": {"distribution": "uniform", "scale": 1.0, "seed": null, "mode": "fan_avg"}}, "depthwise_constraint": null, "strides": [1, 1], "pointwise_regularizer": null, "filters": 728, "bias_initializer": {"class_name": "Zeros", "config": {}}, "depth_multiplier": 1, "dilation_rate": [1, 1], "depthwise_regularizer": null, "activation": "linear", "kernel_size": [3, 3], "name": "block7_sepconv3"}, "inbound_nodes": [[["block7_sepconv3_act", 0, 0, {}]]], "name": "block7_sepconv3"}, {"class_name": "BatchNormalization", "config": {"beta_constraint": null, "gamma_initializer": {"class_name": "Ones", "config": {}}, "moving_mean_initializer": {"class_name": "Zeros", "config": {}}, "name": "block7_sepconv3_bn", "epsilon": 0.001, "trainable": true, "moving_variance_initializer": {"class_name": "Ones", "config": {}}, "beta_initializer": {"class_name": "Zeros", "config": {}}, "scale": true, "axis": -1, "gamma_constraint": null, "gamma_regularizer": null, "beta_regularizer": null, "momentum": 0.99, "center": true}, "inbound_nodes": [[["block7_sepconv3", 0, 0, {}]]], "name": "block7_sepconv3_bn"}, {"class_name": "Add", "config": {"trainable": true, "name": "add_6"}, "inbound_nodes": [[["block7_sepconv3_bn", 0, 0, {}], ["add_5", 0, 0, {}]]], "name": "add_6"}, {"class_name": "Activation", "config": {"activation": "relu", "trainable": true, "name": "block8_sepconv1_act"}, "inbound_nodes": [[["add_6", 0, 0, {}]]], "name": "block8_sepconv1_act"}, {"class_name": "SeparableConv2D", "config": {"padding": "same", "use_bias": false, "bias_regularizer": null, "pointwise_initializer": {"class_name": "VarianceScaling", "config": {"distribution": "uniform", "scale": 1.0, "seed": null, "mode": "fan_avg"}}, "bias_constraint": null, "activity_regularizer": null, "trainable": true, "pointwise_constraint": null, "data_format": "channels_last", "depthwise_initializer": {"class_name": "VarianceScaling", "config": {"distribution": "uniform", "scale": 1.0, "seed": null, "mode": "fan_avg"}}, "depthwise_constraint": null, "strides": [1, 1], "pointwise_regularizer": null, "filters": 728, "bias_initializer": {"class_name": "Zeros", "config": {}}, "depth_multiplier": 1, "dilation_rate": [1, 1], "depthwise_regularizer": null, "activation": "linear", "kernel_size": [3, 3], "name": "block8_sepconv1"}, "inbound_nodes": [[["block8_sepconv1_act", 0, 0, {}]]], "name": "block8_sepconv1"}, {"class_name": "BatchNormalization", "config": {"beta_constraint": null, "gamma_initializer": {"class_name": "Ones", "config": {}}, "moving_mean_initializer": {"class_name": "Zeros", "config": {}}, "name": "block8_sepconv1_bn", "epsilon": 0.001, "trainable": true, "moving_variance_initializer": {"class_name": "Ones", "config": {}}, "beta_initializer": {"class_name": "Zeros", "config": {}}, "scale": true, "axis": -1, "gamma_constraint": null, "gamma_regularizer": null, "beta_regularizer": null, "momentum": 0.99, "center": true}, "inbound_nodes": [[["block8_sepconv1", 0, 0, {}]]], "name": "block8_sepconv1_bn"}, {"class_name": "Activation", "config": {"activation": "relu", "trainable": true, "name": "block8_sepconv2_act"}, "inbound_nodes": [[["block8_sepconv1_bn", 0, 0, {}]]], "name": "block8_sepconv2_act"}, {"class_name": "SeparableConv2D", "config": {"padding": "same", "use_bias": false, "bias_regularizer": null, "pointwise_initializer": {"class_name": "VarianceScaling", "config": {"distribution": "uniform", "scale": 1.0, "seed": null, "mode": "fan_avg"}}, "bias_constraint": null, "activity_regularizer": null, "trainable": true, "pointwise_constraint": null, "data_format": "channels_last", "depthwise_initializer": {"class_name": "VarianceScaling", "config": {"distribution": "uniform", "scale": 1.0, "seed": null, "mode": "fan_avg"}}, "depthwise_constraint": null, "strides": [1, 1], "pointwise_regularizer": null, "filters": 728, "bias_initializer": {"class_name": "Zeros", "config": {}}, "depth_multiplier": 1, "dilation_rate": [1, 1], "depthwise_regularizer": null, "activation": "linear", "kernel_size": [3, 3], "name": "block8_sepconv2"}, "inbound_nodes": [[["block8_sepconv2_act", 0, 0, {}]]], "name": "block8_sepconv2"}, {"class_name": "BatchNormalization", "config": {"beta_constraint": null, "gamma_initializer": {"class_name": "Ones", "config": {}}, "moving_mean_initializer": {"class_name": "Zeros", "config": {}}, "name": "block8_sepconv2_bn", "epsilon": 0.001, "trainable": true, "moving_variance_initializer": {"class_name": "Ones", "config": {}}, "beta_initializer": {"class_name": "Zeros", "config": {}}, "scale": true, "axis": -1, "gamma_constraint": null, "gamma_regularizer": null, "beta_regularizer": null, "momentum": 0.99, "center": true}, "inbound_nodes": [[["block8_sepconv2", 0, 0, {}]]], "name": "block8_sepconv2_bn"}, {"class_name": "Activation", "config": {"activation": "relu", "trainable": true, "name": "block8_sepconv3_act"}, "inbound_nodes": [[["block8_sepconv2_bn", 0, 0, {}]]], "name": "block8_sepconv3_act"}, {"class_name": "SeparableConv2D", "config": {"padding": "same", "use_bias": false, "bias_regularizer": null, "pointwise_initializer": {"class_name": "VarianceScaling", "config": {"distribution": "uniform", "scale": 1.0, "seed": null, "mode": "fan_avg"}}, "bias_constraint": null, "activity_regularizer": null, "trainable": true, "pointwise_constraint": null, "data_format": "channels_last", "depthwise_initializer": {"class_name": "VarianceScaling", "config": {"distribution": "uniform", "scale": 1.0, "seed": null, "mode": "fan_avg"}}, "depthwise_constraint": null, "strides": [1, 1], "pointwise_regularizer": null, "filters": 728, "bias_initializer": {"class_name": "Zeros", "config": {}}, "depth_multiplier": 1, "dilation_rate": [1, 1], "depthwise_regularizer": null, "activation": "linear", "kernel_size": [3, 3], "name": "block8_sepconv3"}, "inbound_nodes": [[["block8_sepconv3_act", 0, 0, {}]]], "name": "block8_sepconv3"}, {"class_name": "BatchNormalization", "config": {"beta_constraint": null, "gamma_initializer": {"class_name": "Ones", "config": {}}, "moving_mean_initializer": {"class_name": "Zeros", "config": {}}, "name": "block8_sepconv3_bn", "epsilon": 0.001, "trainable": true, "moving_variance_initializer": {"class_name": "Ones", "config": {}}, "beta_initializer": {"class_name": "Zeros", "config": {}}, "scale": true, "axis": -1, "gamma_constraint": null, "gamma_regularizer": null, "beta_regularizer": null, "momentum": 0.99, "center": true}, "inbound_nodes": [[["block8_sepconv3", 0, 0, {}]]], "name": "block8_sepconv3_bn"}, {"class_name": "Add", "config": {"trainable": true, "name": "add_7"}, "inbound_nodes": [[["block8_sepconv3_bn", 0, 0, {}], ["add_6", 0, 0, {}]]], "name": "add_7"}, {"class_name": "Activation", "config": {"activation": "relu", "trainable": true, "name": "block9_sepconv1_act"}, "inbound_nodes": [[["add_7", 0, 0, {}]]], "name": "block9_sepconv1_act"}, {"class_name": "SeparableConv2D", "config": {"padding": "same", "use_bias": false, "bias_regularizer": null, "pointwise_initializer": {"class_name": "VarianceScaling", "config": {"distribution": "uniform", "scale": 1.0, "seed": null, "mode": "fan_avg"}}, "bias_constraint": null, "activity_regularizer": null, "trainable": true, "pointwise_constraint": null, "data_format": "channels_last", "depthwise_initializer": {"class_name": "VarianceScaling", "config": {"distribution": "uniform", "scale": 1.0, "seed": null, "mode": "fan_avg"}}, "depthwise_constraint": null, "strides": [1, 1], "pointwise_regularizer": null, "filters": 728, "bias_initializer": {"class_name": "Zeros", "config": {}}, "depth_multiplier": 1, "dilation_rate": [1, 1], "depthwise_regularizer": null, "activation": "linear", "kernel_size": [3, 3], "name": "block9_sepconv1"}, "inbound_nodes": [[["block9_sepconv1_act", 0, 0, {}]]], "name": "block9_sepconv1"}, {"class_name": "BatchNormalization", "config": {"beta_constraint": null, "gamma_initializer": {"class_name": "Ones", "config": {}}, "moving_mean_initializer": {"class_name": "Zeros", "config": {}}, "name": "block9_sepconv1_bn", "epsilon": 0.001, "trainable": true, "moving_variance_initializer": {"class_name": "Ones", "config": {}}, "beta_initializer": {"class_name": "Zeros", "config": {}}, "scale": true, "axis": -1, "gamma_constraint": null, "gamma_regularizer": null, "beta_regularizer": null, "momentum": 0.99, "center": true}, "inbound_nodes": [[["block9_sepconv1", 0, 0, {}]]], "name": "block9_sepconv1_bn"}, {"class_name": "Activation", "config": {"activation": "relu", "trainable": true, "name": "block9_sepconv2_act"}, "inbound_nodes": [[["block9_sepconv1_bn", 0, 0, {}]]], "name": "block9_sepconv2_act"}, {"class_name": "SeparableConv2D", "config": {"padding": "same", "use_bias": false, "bias_regularizer": null, "pointwise_initializer": {"class_name": "VarianceScaling", "config": {"distribution": "uniform", "scale": 1.0, "seed": null, "mode": "fan_avg"}}, "bias_constraint": null, "activity_regularizer": null, "trainable": true, "pointwise_constraint": null, "data_format": "channels_last", "depthwise_initializer": {"class_name": "VarianceScaling", "config": {"distribution": "uniform", "scale": 1.0, "seed": null, "mode": "fan_avg"}}, "depthwise_constraint": null, "strides": [1, 1], "pointwise_regularizer": null, "filters": 728, "bias_initializer": {"class_name": "Zeros", "config": {}}, "depth_multiplier": 1, "dilation_rate": [1, 1], "depthwise_regularizer": null, "activation": "linear", "kernel_size": [3, 3], "name": "block9_sepconv2"}, "inbound_nodes": [[["block9_sepconv2_act", 0, 0, {}]]], "name": "block9_sepconv2"}, {"class_name": "BatchNormalization", "config": {"beta_constraint": null, "gamma_initializer": {"class_name": "Ones", "config": {}}, "moving_mean_initializer": {"class_name": "Zeros", "config": {}}, "name": "block9_sepconv2_bn", "epsilon": 0.001, "trainable": true, "moving_variance_initializer": {"class_name": "Ones", "config": {}}, "beta_initializer": {"class_name": "Zeros", "config": {}}, "scale": true, "axis": -1, "gamma_constraint": null, "gamma_regularizer": null, "beta_regularizer": null, "momentum": 0.99, "center": true}, "inbound_nodes": [[["block9_sepconv2", 0, 0, {}]]], "name": "block9_sepconv2_bn"}, {"class_name": "Activation", "config": {"activation": "relu", "trainable": true, "name": "block9_sepconv3_act"}, "inbound_nodes": [[["block9_sepconv2_bn", 0, 0, {}]]], "name": "block9_sepconv3_act"}, {"class_name": "SeparableConv2D", "config": {"padding": "same", "use_bias": false, "bias_regularizer": null, "pointwise_initializer": {"class_name": "VarianceScaling", "config": {"distribution": "uniform", "scale": 1.0, "seed": null, "mode": "fan_avg"}}, "bias_constraint": null, "activity_regularizer": null, "trainable": true, "pointwise_constraint": null, "data_format": "channels_last", "depthwise_initializer": {"class_name": "VarianceScaling", "config": {"distribution": "uniform", "scale": 1.0, "seed": null, "mode": "fan_avg"}}, "depthwise_constraint": null, "strides": [1, 1], "pointwise_regularizer": null, "filters": 728, "bias_initializer": {"class_name": "Zeros", "config": {}}, "depth_multiplier": 1, "dilation_rate": [1, 1], "depthwise_regularizer": null, "activation": "linear", "kernel_size": [3, 3], "name": "block9_sepconv3"}, "inbound_nodes": [[["block9_sepconv3_act", 0, 0, {}]]], "name": "block9_sepconv3"}, {"class_name": "BatchNormalization", "config": {"beta_constraint": null, "gamma_initializer": {"class_name": "Ones", "config": {}}, "moving_mean_initializer": {"class_name": "Zeros", "config": {}}, "name": "block9_sepconv3_bn", "epsilon": 0.001, "trainable": true, "moving_variance_initializer": {"class_name": "Ones", "config": {}}, "beta_initializer": {"class_name": "Zeros", "config": {}}, "scale": true, "axis": -1, "gamma_constraint": null, "gamma_regularizer": null, "beta_regularizer": null, "momentum": 0.99, "center": true}, "inbound_nodes": [[["block9_sepconv3", 0, 0, {}]]], "name": "block9_sepconv3_bn"}, {"class_name": "Add", "config": {"trainable": true, "name": "add_8"}, "inbound_nodes": [[["block9_sepconv3_bn", 0, 0, {}], ["add_7", 0, 0, {}]]], "name": "add_8"}, {"class_name": "Activation", "config": {"activation": "relu", "trainable": true, "name": "block10_sepconv1_act"}, "inbound_nodes": [[["add_8", 0, 0, {}]]], "name": "block10_sepconv1_act"}, {"class_name": "SeparableConv2D", "config": {"padding": "same", "use_bias": false, "bias_regularizer": null, "pointwise_initializer": {"class_name": "VarianceScaling", "config": {"distribution": "uniform", "scale": 1.0, "seed": null, "mode": "fan_avg"}}, "bias_constraint": null, "activity_regularizer": null, "trainable": true, "pointwise_constraint": null, "data_format": "channels_last", "depthwise_initializer": {"class_name": "VarianceScaling", "config": {"distribution": "uniform", "scale": 1.0, "seed": null, "mode": "fan_avg"}}, "depthwise_constraint": null, "strides": [1, 1], "pointwise_regularizer": null, "filters": 728, "bias_initializer": {"class_name": "Zeros", "config": {}}, "depth_multiplier": 1, "dilation_rate": [1, 1], "depthwise_regularizer": null, "activation": "linear", "kernel_size": [3, 3], "name": "block10_sepconv1"}, "inbound_nodes": [[["block10_sepconv1_act", 0, 0, {}]]], "name": "block10_sepconv1"}, {"class_name": "BatchNormalization", "config": {"beta_constraint": null, "gamma_initializer": {"class_name": "Ones", "config": {}}, "moving_mean_initializer": {"class_name": "Zeros", "config": {}}, "name": "block10_sepconv1_bn", "epsilon": 0.001, "trainable": true, "moving_variance_initializer": {"class_name": "Ones", "config": {}}, "beta_initializer": {"class_name": "Zeros", "config": {}}, "scale": true, "axis": -1, "gamma_constraint": null, "gamma_regularizer": null, "beta_regularizer": null, "momentum": 0.99, "center": true}, "inbound_nodes": [[["block10_sepconv1", 0, 0, {}]]], "name": "block10_sepconv1_bn"}, {"class_name": "Activation", "config": {"activation": "relu", "trainable": true, "name": "block10_sepconv2_act"}, "inbound_nodes": [[["block10_sepconv1_bn", 0, 0, {}]]], "name": "block10_sepconv2_act"}, {"class_name": "SeparableConv2D", "config": {"padding": "same", "use_bias": false, "bias_regularizer": null, "pointwise_initializer": {"class_name": "VarianceScaling", "config": {"distribution": "uniform", "scale": 1.0, "seed": null, "mode": "fan_avg"}}, "bias_constraint": null, "activity_regularizer": null, "trainable": true, "pointwise_constraint": null, "data_format": "channels_last", "depthwise_initializer": {"class_name": "VarianceScaling", "config": {"distribution": "uniform", "scale": 1.0, "seed": null, "mode": "fan_avg"}}, "depthwise_constraint": null, "strides": [1, 1], "pointwise_regularizer": null, "filters": 728, "bias_initializer": {"class_name": "Zeros", "config": {}}, "depth_multiplier": 1, "dilation_rate": [1, 1], "depthwise_regularizer": null, "activation": "linear", "kernel_size": [3, 3], "name": "block10_sepconv2"}, "inbound_nodes": [[["block10_sepconv2_act", 0, 0, {}]]], "name": "block10_sepconv2"}, {"class_name": "BatchNormalization", "config": {"beta_constraint": null, "gamma_initializer": {"class_name": "Ones", "config": {}}, "moving_mean_initializer": {"class_name": "Zeros", "config": {}}, "name": "block10_sepconv2_bn", "epsilon": 0.001, "trainable": true, "moving_variance_initializer": {"class_name": "Ones", "config": {}}, "beta_initializer": {"class_name": "Zeros", "config": {}}, "scale": true, "axis": -1, "gamma_constraint": null, "gamma_regularizer": null, "beta_regularizer": null, "momentum": 0.99, "center": true}, "inbound_nodes": [[["block10_sepconv2", 0, 0, {}]]], "name": "block10_sepconv2_bn"}, {"class_name": "Activation", "config": {"activation": "relu", "trainable": true, "name": "block10_sepconv3_act"}, "inbound_nodes": [[["block10_sepconv2_bn", 0, 0, {}]]], "name": "block10_sepconv3_act"}, {"class_name": "SeparableConv2D", "config": {"padding": "same", "use_bias": false, "bias_regularizer": null, "pointwise_initializer": {"class_name": "VarianceScaling", "config": {"distribution": "uniform", "scale": 1.0, "seed": null, "mode": "fan_avg"}}, "bias_constraint": null, "activity_regularizer": null, "trainable": true, "pointwise_constraint": null, "data_format": "channels_last", "depthwise_initializer": {"class_name": "VarianceScaling", "config": {"distribution": "uniform", "scale": 1.0, "seed": null, "mode": "fan_avg"}}, "depthwise_constraint": null, "strides": [1, 1], "pointwise_regularizer": null, "filters": 728, "bias_initializer": {"class_name": "Zeros", "config": {}}, "depth_multiplier": 1, "dilation_rate": [1, 1], "depthwise_regularizer": null, "activation": "linear", "kernel_size": [3, 3], "name": "block10_sepconv3"}, "inbound_nodes": [[["block10_sepconv3_act", 0, 0, {}]]], "name": "block10_sepconv3"}, {"class_name": "BatchNormalization", "config": {"beta_constraint": null, "gamma_initializer": {"class_name": "Ones", "config": {}}, "moving_mean_initializer": {"class_name": "Zeros", "config": {}}, "name": "block10_sepconv3_bn", "epsilon": 0.001, "trainable": true, "moving_variance_initializer": {"class_name": "Ones", "config": {}}, "beta_initializer": {"class_name": "Zeros", "config": {}}, "scale": true, "axis": -1, "gamma_constraint": null, "gamma_regularizer": null, "beta_regularizer": null, "momentum": 0.99, "center": true}, "inbound_nodes": [[["block10_sepconv3", 0, 0, {}]]], "name": "block10_sepconv3_bn"}, {"class_name": "Add", "config": {"trainable": true, "name": "add_9"}, "inbound_nodes": [[["block10_sepconv3_bn", 0, 0, {}], ["add_8", 0, 0, {}]]], "name": "add_9"}, {"class_name": "Activation", "config": {"activation": "relu", "trainable": true, "name": "block11_sepconv1_act"}, "inbound_nodes": [[["add_9", 0, 0, {}]]], "name": "block11_sepconv1_act"}, {"class_name": "SeparableConv2D", "config": {"padding": "same", "use_bias": false, "bias_regularizer": null, "pointwise_initializer": {"class_name": "VarianceScaling", "config": {"distribution": "uniform", "scale": 1.0, "seed": null, "mode": "fan_avg"}}, "bias_constraint": null, "activity_regularizer": null, "trainable": true, "pointwise_constraint": null, "data_format": "channels_last", "depthwise_initializer": {"class_name": "VarianceScaling", "config": {"distribution": "uniform", "scale": 1.0, "seed": null, "mode": "fan_avg"}}, "depthwise_constraint": null, "strides": [1, 1], "pointwise_regularizer": null, "filters": 728, "bias_initializer": {"class_name": "Zeros", "config": {}}, "depth_multiplier": 1, "dilation_rate": [1, 1], "depthwise_regularizer": null, "activation": "linear", "kernel_size": [3, 3], "name": "block11_sepconv1"}, "inbound_nodes": [[["block11_sepconv1_act", 0, 0, {}]]], "name": "block11_sepconv1"}, {"class_name": "BatchNormalization", "config": {"beta_constraint": null, "gamma_initializer": {"class_name": "Ones", "config": {}}, "moving_mean_initializer": {"class_name": "Zeros", "config": {}}, "name": "block11_sepconv1_bn", "epsilon": 0.001, "trainable": true, "moving_variance_initializer": {"class_name": "Ones", "config": {}}, "beta_initializer": {"class_name": "Zeros", "config": {}}, "scale": true, "axis": -1, "gamma_constraint": null, "gamma_regularizer": null, "beta_regularizer": null, "momentum": 0.99, "center": true}, "inbound_nodes": [[["block11_sepconv1", 0, 0, {}]]], "name": "block11_sepconv1_bn"}, {"class_name": "Activation", "config": {"activation": "relu", "trainable": true, "name": "block11_sepconv2_act"}, "inbound_nodes": [[["block11_sepconv1_bn", 0, 0, {}]]], "name": "block11_sepconv2_act"}, {"class_name": "SeparableConv2D", "config": {"padding": "same", "use_bias": false, "bias_regularizer": null, "pointwise_initializer": {"class_name": "VarianceScaling", "config": {"distribution": "uniform", "scale": 1.0, "seed": null, "mode": "fan_avg"}}, "bias_constraint": null, "activity_regularizer": null, "trainable": true, "pointwise_constraint": null, "data_format": "channels_last", "depthwise_initializer": {"class_name": "VarianceScaling", "config": {"distribution": "uniform", "scale": 1.0, "seed": null, "mode": "fan_avg"}}, "depthwise_constraint": null, "strides": [1, 1], "pointwise_regularizer": null, "filters": 728, "bias_initializer": {"class_name": "Zeros", "config": {}}, "depth_multiplier": 1, "dilation_rate": [1, 1], "depthwise_regularizer": null, "activation": "linear", "kernel_size": [3, 3], "name": "block11_sepconv2"}, "inbound_nodes": [[["block11_sepconv2_act", 0, 0, {}]]], "name": "block11_sepconv2"}, {"class_name": "BatchNormalization", "config": {"beta_constraint": null, "gamma_initializer": {"class_name": "Ones", "config": {}}, "moving_mean_initializer": {"class_name": "Zeros", "config": {}}, "name": "block11_sepconv2_bn", "epsilon": 0.001, "trainable": true, "moving_variance_initializer": {"class_name": "Ones", "config": {}}, "beta_initializer": {"class_name": "Zeros", "config": {}}, "scale": true, "axis": -1, "gamma_constraint": null, "gamma_regularizer": null, "beta_regularizer": null, "momentum": 0.99, "center": true}, "inbound_nodes": [[["block11_sepconv2", 0, 0, {}]]], "name": "block11_sepconv2_bn"}, {"class_name": "Activation", "config": {"activation": "relu", "trainable": true, "name": "block11_sepconv3_act"}, "inbound_nodes": [[["block11_sepconv2_bn", 0, 0, {}]]], "name": "block11_sepconv3_act"}, {"class_name": "SeparableConv2D", "config": {"padding": "same", "use_bias": false, "bias_regularizer": null, "pointwise_initializer": {"class_name": "VarianceScaling", "config": {"distribution": "uniform", "scale": 1.0, "seed": null, "mode": "fan_avg"}}, "bias_constraint": null, "activity_regularizer": null, "trainable": true, "pointwise_constraint": null, "data_format": "channels_last", "depthwise_initializer": {"class_name": "VarianceScaling", "config": {"distribution": "uniform", "scale": 1.0, "seed": null, "mode": "fan_avg"}}, "depthwise_constraint": null, "strides": [1, 1], "pointwise_regularizer": null, "filters": 728, "bias_initializer": {"class_name": "Zeros", "config": {}}, "depth_multiplier": 1, "dilation_rate": [1, 1], "depthwise_regularizer": null, "activation": "linear", "kernel_size": [3, 3], "name": "block11_sepconv3"}, "inbound_nodes": [[["block11_sepconv3_act", 0, 0, {}]]], "name": "block11_sepconv3"}, {"class_name": "BatchNormalization", "config": {"beta_constraint": null, "gamma_initializer": {"class_name": "Ones", "config": {}}, "moving_mean_initializer": {"class_name": "Zeros", "config": {}}, "name": "block11_sepconv3_bn", "epsilon": 0.001, "trainable": true, "moving_variance_initializer": {"class_name": "Ones", "config": {}}, "beta_initializer": {"class_name": "Zeros", "config": {}}, "scale": true, "axis": -1, "gamma_constraint": null, "gamma_regularizer": null, "beta_regularizer": null, "momentum": 0.99, "center": true}, "inbound_nodes": [[["block11_sepconv3", 0, 0, {}]]], "name": "block11_sepconv3_bn"}, {"class_name": "Add", "config": {"trainable": true, "name": "add_10"}, "inbound_nodes": [[["block11_sepconv3_bn", 0, 0, {}], ["add_9", 0, 0, {}]]], "name": "add_10"}, {"class_name": "Activation", "config": {"activation": "relu", "trainable": true, "name": "block12_sepconv1_act"}, "inbound_nodes": [[["add_10", 0, 0, {}]]], "name": "block12_sepconv1_act"}, {"class_name": "SeparableConv2D", "config": {"padding": "same", "use_bias": false, "bias_regularizer": null, "pointwise_initializer": {"class_name": "VarianceScaling", "config": {"distribution": "uniform", "scale": 1.0, "seed": null, "mode": "fan_avg"}}, "bias_constraint": null, "activity_regularizer": null, "trainable": true, "pointwise_constraint": null, "data_format": "channels_last", "depthwise_initializer": {"class_name": "VarianceScaling", "config": {"distribution": "uniform", "scale": 1.0, "seed": null, "mode": "fan_avg"}}, "depthwise_constraint": null, "strides": [1, 1], "pointwise_regularizer": null, "filters": 728, "bias_initializer": {"class_name": "Zeros", "config": {}}, "depth_multiplier": 1, "dilation_rate": [1, 1], "depthwise_regularizer": null, "activation": "linear", "kernel_size": [3, 3], "name": "block12_sepconv1"}, "inbound_nodes": [[["block12_sepconv1_act", 0, 0, {}]]], "name": "block12_sepconv1"}, {"class_name": "BatchNormalization", "config": {"beta_constraint": null, "gamma_initializer": {"class_name": "Ones", "config": {}}, "moving_mean_initializer": {"class_name": "Zeros", "config": {}}, "name": "block12_sepconv1_bn", "epsilon": 0.001, "trainable": true, "moving_variance_initializer": {"class_name": "Ones", "config": {}}, "beta_initializer": {"class_name": "Zeros", "config": {}}, "scale": true, "axis": -1, "gamma_constraint": null, "gamma_regularizer": null, "beta_regularizer": null, "momentum": 0.99, "center": true}, "inbound_nodes": [[["block12_sepconv1", 0, 0, {}]]], "name": "block12_sepconv1_bn"}, {"class_name": "Activation", "config": {"activation": "relu", "trainable": true, "name": "block12_sepconv2_act"}, "inbound_nodes": [[["block12_sepconv1_bn", 0, 0, {}]]], "name": "block12_sepconv2_act"}, {"class_name": "SeparableConv2D", "config": {"padding": "same", "use_bias": false, "bias_regularizer": null, "pointwise_initializer": {"class_name": "VarianceScaling", "config": {"distribution": "uniform", "scale": 1.0, "seed": null, "mode": "fan_avg"}}, "bias_constraint": null, "activity_regularizer": null, "trainable": true, "pointwise_constraint": null, "data_format": "channels_last", "depthwise_initializer": {"class_name": "VarianceScaling", "config": {"distribution": "uniform", "scale": 1.0, "seed": null, "mode": "fan_avg"}}, "depthwise_constraint": null, "strides": [1, 1], "pointwise_regularizer": null, "filters": 728, "bias_initializer": {"class_name": "Zeros", "config": {}}, "depth_multiplier": 1, "dilation_rate": [1, 1], "depthwise_regularizer": null, "activation": "linear", "kernel_size": [3, 3], "name": "block12_sepconv2"}, "inbound_nodes": [[["block12_sepconv2_act", 0, 0, {}]]], "name": "block12_sepconv2"}, {"class_name": "BatchNormalization", "config": {"beta_constraint": null, "gamma_initializer": {"class_name": "Ones", "config": {}}, "moving_mean_initializer": {"class_name": "Zeros", "config": {}}, "name": "block12_sepconv2_bn", "epsilon": 0.001, "trainable": true, "moving_variance_initializer": {"class_name": "Ones", "config": {}}, "beta_initializer": {"class_name": "Zeros", "config": {}}, "scale": true, "axis": -1, "gamma_constraint": null, "gamma_regularizer": null, "beta_regularizer": null, "momentum": 0.99, "center": true}, "inbound_nodes": [[["block12_sepconv2", 0, 0, {}]]], "name": "block12_sepconv2_bn"}, {"class_name": "Activation", "config": {"activation": "relu", "trainable": true, "name": "block12_sepconv3_act"}, "inbound_nodes": [[["block12_sepconv2_bn", 0, 0, {}]]], "name": "block12_sepconv3_act"}, {"class_name": "SeparableConv2D", "config": {"padding": "same", "use_bias": false, "bias_regularizer": null, "pointwise_initializer": {"class_name": "VarianceScaling", "config": {"distribution": "uniform", "scale": 1.0, "seed": null, "mode": "fan_avg"}}, "bias_constraint": null, "activity_regularizer": null, "trainable": true, "pointwise_constraint": null, "data_format": "channels_last", "depthwise_initializer": {"class_name": "VarianceScaling", "config": {"distribution": "uniform", "scale": 1.0, "seed": null, "mode": "fan_avg"}}, "depthwise_constraint": null, "strides": [1, 1], "pointwise_regularizer": null, "filters": 728, "bias_initializer": {"class_name": "Zeros", "config": {}}, "depth_multiplier": 1, "dilation_rate": [1, 1], "depthwise_regularizer": null, "activation": "linear", "kernel_size": [3, 3], "name": "block12_sepconv3"}, "inbound_nodes": [[["block12_sepconv3_act", 0, 0, {}]]], "name": "block12_sepconv3"}, {"class_name": "BatchNormalization", "config": {"beta_constraint": null, "gamma_initializer": {"class_name": "Ones", "config": {}}, "moving_mean_initializer": {"class_name": "Zeros", "config": {}}, "name": "block12_sepconv3_bn", "epsilon": 0.001, "trainable": true, "moving_variance_initializer": {"class_name": "Ones", "config": {}}, "beta_initializer": {"class_name": "Zeros", "config": {}}, "scale": true, "axis": -1, "gamma_constraint": null, "gamma_regularizer": null, "beta_regularizer": null, "momentum": 0.99, "center": true}, "inbound_nodes": [[["block12_sepconv3", 0, 0, {}]]], "name": "block12_sepconv3_bn"}, {"class_name": "Add", "config": {"trainable": true, "name": "add_11"}, "inbound_nodes": [[["block12_sepconv3_bn", 0, 0, {}], ["add_10", 0, 0, {}]]], "name": "add_11"}, {"class_name": "Activation", "config": {"activation": "relu", "trainable": true, "name": "block13_sepconv1_act"}, "inbound_nodes": [[["add_11", 0, 0, {}]]], "name": "block13_sepconv1_act"}, {"class_name": "SeparableConv2D", "config": {"padding": "same", "use_bias": false, "bias_regularizer": null, "pointwise_initializer": {"class_name": "VarianceScaling", "config": {"distribution": "uniform", "scale": 1.0, "seed": null, "mode": "fan_avg"}}, "bias_constraint": null, "activity_regularizer": null, "trainable": true, "pointwise_constraint": null, "data_format": "channels_last", "depthwise_initializer": {"class_name": "VarianceScaling", "config": {"distribution": "uniform", "scale": 1.0, "seed": null, "mode": "fan_avg"}}, "depthwise_constraint": null, "strides": [1, 1], "pointwise_regularizer": null, "filters": 728, "bias_initializer": {"class_name": "Zeros", "config": {}}, "depth_multiplier": 1, "dilation_rate": [1, 1], "depthwise_regularizer": null, "activation": "linear", "kernel_size": [3, 3], "name": "block13_sepconv1"}, "inbound_nodes": [[["block13_sepconv1_act", 0, 0, {}]]], "name": "block13_sepconv1"}, {"class_name": "BatchNormalization", "config": {"beta_constraint": null, "gamma_initializer": {"class_name": "Ones", "config": {}}, "moving_mean_initializer": {"class_name": "Zeros", "config": {}}, "name": "block13_sepconv1_bn", "epsilon": 0.001, "trainable": true, "moving_variance_initializer": {"class_name": "Ones", "config": {}}, "beta_initializer": {"class_name": "Zeros", "config": {}}, "scale": true, "axis": -1, "gamma_constraint": null, "gamma_regularizer": null, "beta_regularizer": null, "momentum": 0.99, "center": true}, "inbound_nodes": [[["block13_sepconv1", 0, 0, {}]]], "name": "block13_sepconv1_bn"}, {"class_name": "Activation", "config": {"activation": "relu", "trainable": true, "name": "block13_sepconv2_act"}, "inbound_nodes": [[["block13_sepconv1_bn", 0, 0, {}]]], "name": "block13_sepconv2_act"}, {"class_name": "SeparableConv2D", "config": {"padding": "same", "use_bias": false, "bias_regularizer": null, "pointwise_initializer": {"class_name": "VarianceScaling", "config": {"distribution": "uniform", "scale": 1.0, "seed": null, "mode": "fan_avg"}}, "bias_constraint": null, "activity_regularizer": null, "trainable": true, "pointwise_constraint": null, "data_format": "channels_last", "depthwise_initializer": {"class_name": "VarianceScaling", "config": {"distribution": "uniform", "scale": 1.0, "seed": null, "mode": "fan_avg"}}, "depthwise_constraint": null, "strides": [1, 1], "pointwise_regularizer": null, "filters": 1024, "bias_initializer": {"class_name": "Zeros", "config": {}}, "depth_multiplier": 1, "dilation_rate": [1, 1], "depthwise_regularizer": null, "activation": "linear", "kernel_size": [3, 3], "name": "block13_sepconv2"}, "inbound_nodes": [[["block13_sepconv2_act", 0, 0, {}]]], "name": "block13_sepconv2"}, {"class_name": "BatchNormalization", "config": {"beta_constraint": null, "gamma_initializer": {"class_name": "Ones", "config": {}}, "moving_mean_initializer": {"class_name": "Zeros", "config": {}}, "name": "block13_sepconv2_bn", "epsilon": 0.001, "trainable": true, "moving_variance_initializer": {"class_name": "Ones", "config": {}}, "beta_initializer": {"class_name": "Zeros", "config": {}}, "scale": true, "axis": -1, "gamma_constraint": null, "gamma_regularizer": null, "beta_regularizer": null, "momentum": 0.99, "center": true}, "inbound_nodes": [[["block13_sepconv2", 0, 0, {}]]], "name": "block13_sepconv2_bn"}, {"class_name": "Conv2D", "config": {"kernel_constraint": null, "kernel_initializer": {"class_name": "VarianceScaling", "config": {"distribution": "uniform", "scale": 1.0, "seed": null, "mode": "fan_avg"}}, "name": "conv2d_4", "bias_regularizer": null, "bias_constraint": null, "activation": "linear", "trainable": true, "data_format": "channels_last", "padding": "same", "strides": [2, 2], "dilation_rate": [1, 1], "kernel_regularizer": null, "filters": 1024, "bias_initializer": {"class_name": "Zeros", "config": {}}, "use_bias": false, "activity_regularizer": null, "kernel_size": [1, 1]}, "inbound_nodes": [[["add_11", 0, 0, {}]]], "name": "conv2d_4"}, {"class_name": "MaxPooling2D", "config": {"name": "block13_pool", "trainable": true, "data_format": "channels_last", "pool_size": [3, 3], "padding": "same", "strides": [2, 2]}, "inbound_nodes": [[["block13_sepconv2_bn", 0, 0, {}]]], "name": "block13_pool"}, {"class_name": "BatchNormalization", "config": {"beta_constraint": null, "gamma_initializer": {"class_name": "Ones", "config": {}}, "moving_mean_initializer": {"class_name": "Zeros", "config": {}}, "name": "batch_normalization_4", "epsilon": 0.001, "trainable": true, "moving_variance_initializer": {"class_name": "Ones", "config": {}}, "beta_initializer": {"class_name": "Zeros", "config": {}}, "scale": true, "axis": -1, "gamma_constraint": null, "gamma_regularizer": null, "beta_regularizer": null, "momentum": 0.99, "center": true}, "inbound_nodes": [[["conv2d_4", 0, 0, {}]]], "name": "batch_normalization_4"}, {"class_name": "Add", "config": {"trainable": true, "name": "add_12"}, "inbound_nodes": [[["block13_pool", 0, 0, {}], ["batch_normalization_4", 0, 0, {}]]], "name": "add_12"}, {"class_name": "SeparableConv2D", "config": {"padding": "same", "use_bias": false, "bias_regularizer": null, "pointwise_initializer": {"class_name": "VarianceScaling", "config": {"distribution": "uniform", "scale": 1.0, "seed": null, "mode": "fan_avg"}}, "bias_constraint": null, "activity_regularizer": null, "trainable": true, "pointwise_constraint": null, "data_format": "channels_last", "depthwise_initializer": {"class_name": "VarianceScaling", "config": {"distribution": "uniform", "scale": 1.0, "seed": null, "mode": "fan_avg"}}, "depthwise_constraint": null, "strides": [1, 1], "pointwise_regularizer": null, "filters": 1536, "bias_initializer": {"class_name": "Zeros", "config": {}}, "depth_multiplier": 1, "dilation_rate": [1, 1], "depthwise_regularizer": null, "activation": "linear", "kernel_size": [3, 3], "name": "block14_sepconv1"}, "inbound_nodes": [[["add_12", 0, 0, {}]]], "name": "block14_sepconv1"}, {"class_name": "BatchNormalization", "config": {"beta_constraint": null, "gamma_initializer": {"class_name": "Ones", "config": {}}, "moving_mean_initializer": {"class_name": "Zeros", "config": {}}, "name": "block14_sepconv1_bn", "epsilon": 0.001, "trainable": true, "moving_variance_initializer": {"class_name": "Ones", "config": {}}, "beta_initializer": {"class_name": "Zeros", "config": {}}, "scale": true, "axis": -1, "gamma_constraint": null, "gamma_regularizer": null, "beta_regularizer": null, "momentum": 0.99, "center": true}, "inbound_nodes": [[["block14_sepconv1", 0, 0, {}]]], "name": "block14_sepconv1_bn"}, {"class_name": "Activation", "config": {"activation": "relu", "trainable": true, "name": "block14_sepconv1_act"}, "inbound_nodes": [[["block14_sepconv1_bn", 0, 0, {}]]], "name": "block14_sepconv1_act"}, {"class_name": "SeparableConv2D", "config": {"padding": "same", "use_bias": false, "bias_regularizer": null, "pointwise_initializer": {"class_name": "VarianceScaling", "config": {"distribution": "uniform", "scale": 1.0, "seed": null, "mode": "fan_avg"}}, "bias_constraint": null, "activity_regularizer": null, "trainable": true, "pointwise_constraint": null, "data_format": "channels_last", "depthwise_initializer": {"class_name": "VarianceScaling", "config": {"distribution": "uniform", "scale": 1.0, "seed": null, "mode": "fan_avg"}}, "depthwise_constraint": null, "strides": [1, 1], "pointwise_regularizer": null, "filters": 2048, "bias_initializer": {"class_name": "Zeros", "config": {}}, "depth_multiplier": 1, "dilation_rate": [1, 1], "depthwise_regularizer": null, "activation": "linear", "kernel_size": [3, 3], "name": "block14_sepconv2"}, "inbound_nodes": [[["block14_sepconv1_act", 0, 0, {}]]], "name": "block14_sepconv2"}, {"class_name": "BatchNormalization", "config": {"beta_constraint": null, "gamma_initializer": {"class_name": "Ones", "config": {}}, "moving_mean_initializer": {"class_name": "Zeros", "config": {}}, "name": "block14_sepconv2_bn", "epsilon": 0.001, "trainable": true, "moving_variance_initializer": {"class_name": "Ones", "config": {}}, "beta_initializer": {"class_name": "Zeros", "config": {}}, "scale": true, "axis": -1, "gamma_constraint": null, "gamma_regularizer": null, "beta_regularizer": null, "momentum": 0.99, "center": true}, "inbound_nodes": [[["block14_sepconv2", 0, 0, {}]]], "name": "block14_sepconv2_bn"}, {"class_name": "Activation", "config": {"activation": "relu", "trainable": true, "name": "block14_sepconv2_act"}, "inbound_nodes": [[["block14_sepconv2_bn", 0, 0, {}]]], "name": "block14_sepconv2_act"}, {"class_name": "GlobalAveragePooling2D", "config": {"trainable": true, "name": "global_average_pooling2d_1", "data_format": "channels_last"}, "inbound_nodes": [[["block14_sepconv2_act", 0, 0, {}]]], "name": "global_average_pooling2d_1"}, {"class_name": "Dropout", "config": {"rate": 0.5, "trainable": true, "name": "dropout_1"}, "inbound_nodes": [[["global_average_pooling2d_1", 0, 0, {}]]], "name": "dropout_1"}, {"class_name": "Dropout", "config": {"rate": 0.5, "trainable": true, "name": "dropout_2"}, "inbound_nodes": [[["global_average_pooling2d_1", 0, 0, {}]]], "name": "dropout_2"}, {"class_name": "Dropout", "config": {"rate": 0.5, "trainable": true, "name": "dropout_3"}, "inbound_nodes": [[["global_average_pooling2d_1", 0, 0, {}]]], "name": "dropout_3"}, {"class_name": "Dropout", "config": {"rate": 0.5, "trainable": true, "name": "dropout_4"}, "inbound_nodes": [[["global_average_pooling2d_1", 0, 0, {}]]], "name": "dropout_4"}, {"class_name": "Dense", "config": {"kernel_initializer": {"class_name": "VarianceScaling", "config": {"distribution": "uniform", "scale": 1.0, "seed": null, "mode": "fan_avg"}}, "name": "dense_1", "kernel_constraint": null, "bias_regularizer": null, "bias_constraint": null, "activation": "softmax", "trainable": true, "kernel_regularizer": null, "bias_initializer": {"class_name": "Zeros", "config": {}}, "units": 26, "use_bias": true, "activity_regularizer": null}, "inbound_nodes": [[["dropout_1", 0, 0, {}]]], "name": "dense_1"}, {"class_name": "Dense", "config": {"kernel_initializer": {"class_name": "VarianceScaling", "config": {"distribution": "uniform", "scale": 1.0, "seed": null, "mode": "fan_avg"}}, "name": "dense_2", "kernel_constraint": null, "bias_regularizer": null, "bias_constraint": null, "activation": "softmax", "trainable": true, "kernel_regularizer": null, "bias_initializer": {"class_name": "Zeros", "config": {}}, "units": 26, "use_bias": true, "activity_regularizer": null}, "inbound_nodes": [[["dropout_2", 0, 0, {}]]], "name": "dense_2"}, {"class_name": "Dense", "config": {"kernel_initializer": {"class_name": "VarianceScaling", "config": {"distribution": "uniform", "scale": 1.0, "seed": null, "mode": "fan_avg"}}, "name": "dense_3", "kernel_constraint": null, "bias_regularizer": null, "bias_constraint": null, "activation": "softmax", "trainable": true, "kernel_regularizer": null, "bias_initializer": {"class_name": "Zeros", "config": {}}, "units": 26, "use_bias": true, "activity_regularizer": null}, "inbound_nodes": [[["dropout_3", 0, 0, {}]]], "name": "dense_3"}, {"class_name": "Dense", "config": {"kernel_initializer": {"class_name": "VarianceScaling", "config": {"distribution": "uniform", "scale": 1.0, "seed": null, "mode": "fan_avg"}}, "name": "dense_4", "kernel_constraint": null, "bias_regularizer": null, "bias_constraint": null, "activation": "softmax", "trainable": true, "kernel_regularizer": null, "bias_initializer": {"class_name": "Zeros", "config": {}}, "units": 26, "use_bias": true, "activity_regularizer": null}, "inbound_nodes": [[["dropout_4", 0, 0, {}]]], "name": "dense_4"}], "input_layers": [["input_1", 0, 0]], "output_layers": [["dense_1", 0, 0], ["dense_2", 0, 0], ["dense_3", 0, 0], ["dense_4", 0, 0]], "name": "model_1"}, "backend": "tensorflow"}